…
    "ytrain = sklearn.utils.shuffle(ytrain, random_state = 7)\n",
    "\n",
    "test = sklearn.utils.shuffle(test, random_state = 7)\n",
    "ytest = sklearn.utils.shuffle(ytest, random_state = 7)"
   ]
  },
  {
   "cell_type": "code",
   "execution_count": 25,
   "metadata": {},
   "outputs": [
    {
     "output_type": "stream",
     "name": "stdout",
     "text": [
      "Model: \"sequential\"\n_________________________________________________________________\nLayer (type)                 Output Shape              Param #   \n=================================================================\nconv2d (Conv2D)              (None, 64, 64, 16)        80        \n_________________________________________________________________\naverage_pooling2d (AveragePo (None, 32, 32, 16)        0         \n_________________________________________________________________\nconv2d_1 (Conv2D)            (None, 32, 32, 32)        2080      \n_________________________________________________________________\naverage_pooling2d_1 (Average (None, 16, 16, 32)        0         \n_________________________________________________________________\nconv2d_2 (Conv2D)            (None, 16, 16, 64)        8256      \n_________________________________________________________________\naverage_pooling2d_2 (Average (None, 8, 8, 64)          0         \n_________________________________________________________________\nconv2d_3 (Conv2D)            (None, 8, 8, 128)         32896     \n_________________________________________________________________\naverage_pooling2d_3 (Average (None, 4, 4, 128)         0         \n_________________________________________________________________\nflatten (Flatten)            (None, 2048)              0         \n_________________________________________________________________\ndense (Dense)                (None, 128)               262272    \n_________________________________________________________________\ndense_1 (Dense)              (None, 2)                 258       \n=================================================================\nTotal params: 305,842\nTrainable params: 305,842\nNon-trainable params: 0\n_________________________________________________________________\n"
     ]
    }
   ],
   "source": [
    "cnn = Sequential()\n",
    "\n",
    "## convolution 1\n",
    "cnn.add(Convolution2D(16, (2,2), padding=\"same\", activation='relu', input_shape = (64,64,1)))\n",
…
