…
    "## shuffle the data to prevent pattern recognition\n",
    "train, ytrain = sklearn.utils.shuffle(train, ytrain, random_state = 0)\n",
    "test, ytest = sklearn.utils.shuffle(test, ytest, random_state = 0)"
   ]
  },
  {
   "cell_type": "code",
   "execution_count": 27,
   "metadata": {},
   "outputs": [
    {
     "output_type": "stream",
     "name": "stdout",
     "text": [
      "_________________________________________________________________\nLayer (type)                 Output Shape              Param #   \n=================================================================\nconv2d_17 (Conv2D)           (None, 64, 64, 16)        80        \n_________________________________________________________________\nmax_pooling2d_17 (MaxPooling (None, 32, 32, 16)        0         \n_________________________________________________________________\nconv2d_18 (Conv2D)           (None, 32, 32, 32)        2080      \n_________________________________________________________________\nmax_pooling2d_18 (MaxPooling (None, 16, 16, 32)        0         \n_________________________________________________________________\nconv2d_19 (Conv2D)           (None, 16, 16, 64)        8256      \n_________________________________________________________________\nmax_pooling2d_19 (MaxPooling (None, 8, 8, 64)          0         \n_________________________________________________________________\nconv2d_20 (Conv2D)           (None, 8, 8, 128)         32896     \n_________________________________________________________________\nmax_pooling2d_20 (MaxPooling (None, 4, 4, 128)         0         \n_________________________________________________________________\nflatten_5 (Flatten)          (None, 2048)              0         \n_________________________________________________________________\ndense_10 (Dense)             (None, 256)               524544    \n_________________________________________________________________\ndense_11 (Dense)             (None, 128)               32896     \n_________________________________________________________________\ndense_12 (Dense)             (None, 64)                8256      \n_________________________________________________________________\ndropout_5 (Dropout)          (None, 64)                0         \n_________________________________________________________________\ndense_13 (Dense)             (None, 2)                 130       \n=================================================================\nTotal params: 609,138\nTrainable params: 609,138\nNon-trainable params: 0\n_________________________________________________________________\n"
     ]
    }
   ],
   "source": [
    "# KERNEL_SIZE = [2,2]\n",
    "# IMAGE_SIZE = [64,64,1]\n",
    "\n",
    "cnn = Sequential()\n",
    "\n",
    "## convolution 1\n",
    "cnn.add(Conv2D(16, (2,2), padding=\"same\", activation='relu', input_shape = (64,64,1)))\n",
…
